egs/local/exp/best_model.pth (torch, 707441 bytes, 96 tensors)

model.bottleneck.0.gamma f4 [120]
1.2259954 1.3395394 1.1514075 1.059808 0.9970162 0.9351281 0.83471316 0.854641
0.7484523 0.7487151 0.71009713 0.82875496 0.6975089 0.7648351 0.6918069 0.84753627
0.8174897 0.82051337 0.9399328 1.0288142 1.1213231 1.437413 1.9553361 2.1162832
1.4643458 1.192309 1.0607544 1.0234637 0.9057363 0.8630129 0.82169735 0.7280527
0.7724817 0.7947992 0.80914915 0.796289 0.76503056 0.9134486 0.9026997 0.97100425
1.1070958 1.1648839 1.2508155 1.3394778 1.1904349 1.2154757 0.9763435 0.97531587
0.94998956 0.6262629 0.6608889 0.66072327 0.53793764 0.5555042 0.47286016 0.47139615
0.643203 0.4585955 0.64447314 0.58834356 0.7008777 0.7605709 0.879432 0.78541034
1.1684794 1.1337277 1.1424068 1.0985885 0.70602375 0.9888761 0.8641235 0.9039436
0.85222936 0.78284407 0.7331487 0.6162726 0.6353164 0.4707243 0.777145 0.47129992
0.029337086 -0.035354394 0.03306475 0.021011222 0.08330305 0.084012054 0.087867476 0.14426029
0.29337218 0.16682099 0.29675525 0.24627376 0.45432037 0.4065897 0.27598593 0.46563697
0.5551318 0.44828805 0.5718211 0.41278395 0.017813735 -0.006131345 0.05066791 0.029724287
0.10166338 0.126319 0.15429077 0.08655364 0.34943926 0.30468228 0.29406795 0.37485275
0.3638784 0.33472514 0.48071146 0.43620026 0.5931146 0.66515976 0.5516713 0.54916394
00000000: 6bed 9c3f 0776 ab3f 5261 933f caa7 873f
00000010: 743c 7f3f 8e64 6f3f c3af 553f c1c9 5a3f
00000020: 929a 3f3f cbab 3f3f edc8 353f 4929 543f
00000030: f18f 323f 3ccc 433f 421a 313f 23f8 583f
00000040: 0147 513f 2a0d 523f 709f 703f 2fb0 833f
00000050: 8487 8f3f 26fd b73f 7448 fa3f 2f71 0740
00000060: af6f bb3f 959d 983f cdc6 873f dc00 833f
00000070: 56de 673f 6aee 5c3f c25a 523f a961 3a3f
00000080: 5cc1 453f f677 4b3f 6624 4f3f 99d9 4b3f
00000090: 0bd9 433f c4d7 693f 5417 673f bc93 783f
000000a0: 51b5 8d3f ea1a 953f b91a a03f 0274 ab3f
000000b0: 2c60 983f b594 9b3f a6f1 793f 4dae 793f
000000c0: 8432 733f c452 203f 0430 293f 2925 293f
000000d0: 48b6 093f 8635 0e3f ba1a f23e d65a f13e
000000e0: f4a8 243f 08cd ea3e 31fc 243f af9d 163f
000000f0: b96c 333f c6b4 423f 7522 613f a710 493f
00000100: bc90 953f fd1d 913f 633a 923f 8c9e 8c3f
00000110: f9bd 343f fc26 7d3f 3337 5d3f d968 673f
00000120: b42b 5a3f 7868 483f a2af 3b3f 0bc4 1d3f
00000130: 18a4 223f c702 f13e faf2 463f 394e f13e
00000140: 5454 f03c c5cf 10bd e76e 073d ba1f ac3c
00000150: ca9a aa3d 830e ac3d ddf3 b33d f8b8 133e
00000160: e134 963e 1fd3 2a3e 4ef0 973e 302f 7c3e
00000170: ae9c e83e 862c d03e 074e 8d3e f867 ee3e
00000180: 1e1d 0e3f 0386 e53e de62 123f 6b58 d33e
00000190: 1cee 913c 73e9 c8bb 2889 4f3d 5980 f33c
000001a0: e434 d03d c559 013e 66fe 1d3e 0943 b13d
000001b0: b4e9 b23e 51ff 9b3e 1390 963e b3ec bf3e
000001c0: 454e ba3e 1861 ab3e d01f f63e a455 df3e
000001d0: 5cd6 173f e947 2a3f 553a 0d3f 0296 0c3f

model.bottleneck.0.beta f4 [120]
0.61805487 0.15787458 0.18433134 -0.011802911 0.19580975 0.071311206 0.24191535 0.099801384
0.07154142 -0.06917234 -0.0023161867 -0.07462331 0.055915788 -0.11451882 0.05665191 0.06367876
0.052836966 -0.06606735 0.07480792 -0.04367178 -0.017016174 -0.0083850175 -0.026107522 0.011029198
-0.112641715 -0.044136588 -0.025162924 0.0033968647 -0.056611903 -0.056835562 -0.025764473 -0.01755754
-0.036251266 -0.056263436 -0.056860413 -0.029433018 -0.012237763 0.0036041483 -0.005050813 0.033893783
0.008194021 -0.028955674 0.027870117 0.18574104 -0.12177288 -0.102360465 -0.04590895 -0.048976094
-0.044603728 -0.03370892 -0.0071636653 -0.038284063 -0.014312444 -0.004682266 -0.058657147 -0.07532851
-0.067166075 -0.036155313 -0.030844552 -0.028424636 -0.039219856 -0.03656656 -0.06239247 -0.090132646
-0.0031069722 -0.0512204 -0.09009443 0.14995672 0.0036263827 -0.028267367 -0.07754487 -0.05691585
-0.0435734 -0.07232841 -0.06881337 -0.010403538 -0.04153982 -0.043322798 -0.098069124 -0.048544325
0.0028187411 -0.0034886943 -0.010913543 0.0025902353 -0.0131208375 -0.023380747 -0.0067918734 -0.026966989
-0.028963707 -0.03125599 -0.014872665 -0.019352285 -0.045777027 -0.06014584 -0.032443833 -0.032648206
-0.053820703 -0.04266137 -0.054638512 -0.034528088 -0.014573586 -0.0028958118 -0.016265998 0.00013463909
-0.011805587 -0.0045669926 -0.004925444 -0.008727818 -0.030847335 -0.024659611 -0.014890225 -0.03780074
-0.02288457 -0.01756986 -0.035289135 -0.02688646 -0.042823367 -0.06713393 -0.05170226 -0.021614589
00000000: d838 1e3f e0a9 213e 5bc1 3c3e ff60 41bc
00000010: 5a82 483e 9c0b 923d a8b8 773e ab64 cc3d
00000020: 4f84 923d 3aaa 8dbd 2acb 17bb 1bd4 98bd
00000030: f407 653d d888 eabd d50b 683d 026a 823d
00000040: 936b 583d 524e 87bd e534 993d 2ee1 32bd
00000050: 8165 8bbc 5061 09bc 71df d5bc cfb3 343c
00000060: b3b0 e6bd 91c8 34bd 7a22 cebc ef9d 5e3b
00000070: e2e1 67bd 68cc 68bd 0410 d3bc d5d4 8fbc
00000080: 357c 14bd 7d74 66bd 77e6 68bd 831d f1bc
00000090: e680 48bc 9333 6c3b 4a81 a5bb 35d4 0a3d
000000a0: 3740 063c 7334 edbc df4f e43c e632 3e3e
000000b0: 0f64 f9bd 5da2 d1bd 060b 3cbd 289b 48bd
000000c0: 66b2 36bd 5d12 0abd 2ebd eabb c0cf 1cbd
000000d0: be7e 6abc b26d 99bb 7a42 70bd d545 9abd
000000e0: 5e8e 89bd 9817 14bd b7ad fcbc c8da e8bc
000000f0: 00a5 20bd d1c6 15bd 3f8f 7fbd 7797 b8bd
00000100: 589e 4bbb 7bcc 51bd 6e83 b8bd 418e 193e
00000110: 9ba8 6d3b f790 e7bc d8cf 9ebd 9820 69bd
00000120: 057a 32bd eb20 94bd 06ee 8cbd 9a73 2abc
00000130: a925 2abd 3f73 31bd 77d8 c8bd 6ad6 46bd
00000140: a1ba 383b 94a2 64bb b8ce 32bc f0c0 293b
00000150: c8f8 56bc fb88 bfbc 5d8e debb e0e9 dcbc
00000160: 4c45 edbc 4806 00bd 7aac 73bc af88 9ebc
00000170: b180 3bbd 7c5b 76bd d3e3 04bd 20ba 05bd
00000180: 1973 5cbd b0bd 2ebd a2cc 5fbd 536d 0dbd
00000190: 0dc6 6ebc a9c7 3dbb 4540 85bc e82d 0d39
000001a0: 396c 41bc b6a6 95bb 9e65 a1bb 1fff 0ebc
000001b0: 8db3 fcbc f402 cabc 21f6 73bc f3d4 1abd
000001c0: 6c78 bbbc abee 8fbc 578b 10bd fe40 dcbc
000001d0: 8e67 2fbd 847d 89bd c0c5 53bd 1411 b1bc

model.bottleneck.1.weight f4 [64, 120, 1]
0.063709736 -0.18386374 -0.1475246 0.22469452 -0.011495857 0.25498265 -0.026320744 -0.037789468
-0.0646491 -0.24159291 -0.006029286 -0.12671877 0.01705358 -0.09396397 -0.15065339 -0.032814946
-0.090829715 -0.080056705 -0.023386749 -0.013875256 -0.14439511 -0.17857978 -0.58168495 0.36079082
0.27236497 0.08525397 0.1393737 0.30071992 0.1867901 0.18244262 0.088868834 0.11735361
0.082781166 0.005347809 -0.12867829 -0.16332984 -0.12938116 -0.27460587 -0.16897531 -0.29287568
-0.0030341346 -0.21003266 0.100226566 -0.0011985594 -0.2936793 0.1716736 -0.087849855 -0.020628737
-0.12669328 -0.021670317 -0.32429907 -0.1445494 -0.19769184 -0.19577648 -0.0024704952 0.1521995
0.054478172 0.07461737 0.12690704 0.1633807 0.101172484 0.15109552 0.16273993 0.115225725
-0.06917334 0.08205139 0.13789973 -0.07297201 -0.12794368 -0.10009694 0.031029494 -0.13084006
0.041322585 0.09593424 0.08522642 -0.034431618 0.07109007 -0.19971763 0.23914467 0.08041223
-0.09233082 -0.07826253 -0.03488738 -0.02765222 0.007648531 -0.1385869 -0.12295184 0.032288574
0.012702133 0.012336195 -0.010479046 -0.09778627 0.0067745005 -0.1136239 -0.068961464 -0.093062215
0.116375975 -0.097629726 -0.09823364 -0.073327415 0.0014822903 -0.006056719 0.017558351 -0.007408186
-0.034820687 -0.03041201 -0.043855876 -0.043241713 0.0015312597 0.04172291 5.8786336e-05 -0.0019523051
-0.0028928625 -0.036454022 0.02022102 -0.055870943 -0.081865996 0.053521838 -0.058988236 -0.1241428
-0.13905501 -0.1387371 0.019963352 -0.110323675 0.06375497 -0.007004983 -0.16471437 -0.06216259
0.18929984 0.046861507 -0.106300995 0.21661718 0.2283514 0.09601984 0.12171943 0.06260103
0.11814431 0.1020861 -0.05176401 -0.13869072 -0.13421111 -0.2774916 -0.38551378 0.62029713
0.26214483 0.20112331 0.075362675 0.15293506 0.2481755 0.05689602 -0.0028098885 0.047163345
-0.135398 -0.07142758 -0.24318038 -0.3083665 -0.31480625 -0.24415538 -0.24418266 -0.14430729
-0.27442148 -0.13338444 -0.059667096 -0.20797265 -0.22713993 -0.041306827 -0.008717304 -0.050764985
-0.12667097 -0.1291527 -0.06842897 -0.06242073 -0.014166532 -0.009706809 0.05460569 -0.049446277
0.058604065 0.038460046 0.03249868 0.08799795 0.045910757 0.017356837 -0.045420982 0.10043757
0.08373418 0.12902191 0.15852521 -0.26991576 -0.12962997 -0.012908127 -0.0018688181 -0.020769473
-0.024124522 0.065579884 0.07065412 0.035627585 0.05971374 0.07175368 0.2309505 -0.06433742
-0.010315343 -0.011191295 0.0966466 0.06295207 0.030883478 0.058167648 0.06967484 0.09667951
0.014277593 0.13486522 -0.009797972 0.045922928 -0.03258269 0.16805477 0.093131594 0.023288032
-0.007185234 -0.041449763 -0.11331621 0.06852846 0.005084439 0.017867647 -0.006554142 -0.03742051
0.024266496 -0.07734908 -0.0747347 0.040780533 0.07066439 0.004547023 -0.094451085 -0.075363554
0.06747559 -0.04080151 0.037467957 -1.5589201e-05 -0.08861621 0.019045716 0.08060927 -0.095135175
-0.21702702 -0.32540148 0.07241959 -0.09709115 -0.09558378 0.038913853 -0.07686951 -0.0771182
0.06037835 0.17863725 0.25495073 0.021640789 0.054111842 0.19416338 0.0775424 -0.029663775
00000000: 407a 823d c746 3cbe b010 17be 5216 663e
00000010: 1e59 3cbc 168d 823e 9a9e d7bc 21c9 1abd
00000020: bf66 84bd 2264 77be 5191 c5bb 91c2 01be
00000030: f3b3 8b3c 2f70 c0bd e244 1abe f768 06bd
00000040: ee04 babd c5f4 a3bd 9195 bfbc 0b55 63bc
00000050: 50dc 13be 9edd 36be 4ee9 14bf 93b9 b83e
00000060: 6c73 8b3e a299 ae3d fbb7 0e3e f6f7 993e
00000070: e745 3f3e 3dd2 3a3e dd00 b63d 1757 f03d
00000080: 2c89 a93d ac3c af3b 3ec4 03be f03f 27be
00000090: 7f7c 04be 2499 8cbe dd07 2dbe cdf3 95be
000000a0: 55d8 46bb cd12 57be 9643 cd3d fb18 9dba
000000b0: 225d 96be 34cb 2f3e a0ea b3bd 99fd a8bc
000000c0: e2bb 01be f385 b1bc 870a a6be c204 14be
000000d0: bb6f 4abe a179 48be 08e8 21bb 30da 1b3e
000000e0: 8124 5f3d fed0 983d ebf3 013e 454d 273e
000000f0: 8533 cf3d c9b8 1a3e 4ca5 263e 77fb eb3d
00000100: c1aa 8dbd 8f0a a83d 9635 0d3e 5972 95bd
00000110: ab03 03be a0ff ccbd 9131 fe3c f0fa 05be
00000120: df41 293d 2c79 c43d 308b ae3d 2b08 0dbd
00000130: ac97 913d c782 4cbe 57e2 743e 2baf a43d
00000140: f117 bdbd 1b48 a0bd 12e6 0ebd e986 e2bc
00000150: 87a0 fa3b b9e9 0dbe 2dce fbbd 0641 043d
00000160: 9b1c 503c c11d 4a3c 4eb0 2bbc 2b44 c8bd
00000170: a1fc dd3b a6b3 e8bd ab3b 8dbd 6797 bebd
00000180: 8756 ee3d 18f2 c7bd b82e c9bd af2c 96bd
00000190: 6949 c23a 7177 c6bb 88d6 8f3c 5ec0 f2bb
000001a0: 23a0 0ebd 9c22 f9bc 38a2 33bd 391e 31bd
000001b0: 8db4 c83a a4e5 2a3d 5991 7638 7de4 ffba
000001c0: 2e96 3dbb d050 15bd 8da6 a53c eed8 64bd
000001d0: 5ca9 a7bd b739 5b3d a69d 71bd 953e febd
000001e0: 7064 0ebe 1911 0ebe 2f8a a33c 61f1 e1bd
000001f0: f791 823d 0e8a e5bb e2aa 28be 339e 7ebd
00000200: d1d7 413e daf1 3f3d 56b4 d9bd e5d0 5d3e
00000210: f3d4 693e 0da6 c43d 0948 f93d f834 803d
00000220: a5f5 f13d 8412 d13d 8006 54bd f104 0ebe
00000230: a36e 09be 6113 8ebe 1062 c5be cbcb 1e3f
00000240: d937 863e 45f3 4d3e bf57 9a3d 029b 1c3e
00000250: b821 7e3e cd0b 693d 1b26 38bb 5a2e 413d
00000260: c6a5 0abe a048 92bd 4704 79be 37e2 9dbe
00000270: 492e a1be de03 7abe 050b 7abe 4ac5 13be
00000280: f980 8cbe ee95 08be 7c65 74bd c8f6 54be
00000290: 5f97 68be 5931 29bd 06d3 0ebc f2ee 4fbd
000002a0: 09b6 01be 9b40 04be 7d24 8cbd e1ac 7fbd
000002b0: be1a 68bc 4f09 1fbc 37aa 5f3d 2e88 4abd
000002c0: d10a 703d 4888 1d3d 561d 053d 4538 b43d
000002d0: eb0c 3c3d ed2f 8e3c 5a0b 3abd 36b2 cd3d
000002e0: d37c ab3d 521e 043e 6f54 223e 6632 8abe
000002f0: b8bd 04be 9c7c 53bc 21f3 f4ba be24 aabc
00000300: caa0 c5bc bf4e 863d 1bb3 903d 3bee 113d
00000310: 6596 743d 98f3 923d 4a7e 6c3e 56c3 83bd
00000320: af01 29bc b25b 37bc a7ee c53d 04ed 803d
00000330: 59ff fc3c 3341 6e3d afb1 8e3d e8ff c53d
00000340: 91ec 693c 1c1a 0a3e ac87 20bc ae19 3c3d
00000350: 6d75 05bd 8d16 2c3e c7bb be3d 8bc6 be3c
00000360: 1d72 ebbb 3ac7 29bd 5412 e8bd a658 8c3d
00000370: 5e9b a63b 2c5f 923c 21c4 d6bb 4046 19bd
00000380: 88ca c63c 3269 9ebd 820e 99bd 7d09 273d
00000390: 7eb8 903d 32ff 943b 926f c1bd 3558 9abd
000003a0: a430 8a3d 7c1f 27bd 0078 193d 8ec5 82b7
000003b0: 6a7c b5bd c305 9c3c 7916 a53d 3bd6 c2bd
000003c0: 553c 5ebe 069b a6be b950 943d bad7 c6bd
000003d0: 6ec1 c3bd 2264 1f3d c36d 9dbd 26f0 9dbd
000003e0: 4a4f 773d afec 363e e788 823e 0648 b13c
000003f0: 61a4 5d3d c4d2 463e 8dce 9e3d 7201 f3bc

model.bottleneck.1.bias f4 [64]
0.004616434 -0.23366398 -0.16874544 -0.0728598 0.079025835 0.2670767 0.15453747 0.21324469
0.022769285 0.27830657 0.24179977 -0.23901305 0.036571003 -0.27289572 -0.0903209 0.33512452
-0.07782558 -0.10326488 -0.18492265 -0.09926898 -0.18379426 -0.19459791 0.17630173 0.07199419
0.23489502 0.2852124 -0.34834707 0.08687129 -0.20306845 -0.17809616 -0.16116789 -0.26351652
-0.3756248 0.06508622 0.10016206 -0.16018811 0.10019412 -0.11270889 0.14870119 0.051017646
0.27510133 -0.03712511 0.0126372855 -0.05069808 -0.20753779 -0.017259497 0.019337416 -0.3296636
-0.024586411 -0.09857002 -0.26272935 -0.11749791 0.35291204 -0.23874924 -0.22382288 -0.2584848
-0.055079978 0.0580632 -0.3090175 0.17054003 0.08020781 -0.38274744 0.11198572 -0.04819603
00000000: 7545 973b 9c45 6fbe 9bcb 2cbe 8537 95bd
00000010: 4cd8 a13d 47be 883e 123f 1e3e d15c 5a3e
00000020: a786 ba3c 337e 8e3e 5c9a 773e d6bf 74be
00000030: 7acb 153d fdb8 8bbe 2afa b8bd 7195 ab3e
00000040: 0563 9fbd 8a7c d3bd 5d5c 3dbe 894d cbbd
00000050: 9034 3cbe ad44 47be 7188 343e b171 933d
00000060: 5288 703e 5c07 923e 8c5a b2be 93e9 b13d
00000070: 2df1 4fbe d75e 36be 3209 25be a3eb 86be
00000080: e551 c0be ed4b 853d c421 cd3d 5a08 24be
00000090: 9332 cd3d ebd3 e6bd 2045 183e e1f7 503d
000000a0: 15da 8c3e 8010 18bd 9e0c 4f3c caa8 4fbd
000000b0: c984 54be ca63 8dbc 8069 9e3c abc9 a8be
000000c0: 7169 c9bc 14df c9bd 7684 86be bfa2 f0bd
000000d0: e3b0 b43e ae7a 74be d331 65be 1f58 84be
000000e0: 8b9b 61bd aed3 6d3d 8b37 9ebe 0ca2 2e3e
000000f0: fe43 a43d 79f7 c3be c558 e53d 3369 45bd

model.TCN.0.shared_block.0.weight f4 [128, 64, 1]
-0.002925419 -0.14171071 -0.17754811 0.029331345 -0.08738298 0.20258594 0.10694455 -0.009626236
-0.09201507 0.07434876 0.1802088 -0.19790794 0.08261625 0.11219715 -0.06835571 -0.067045815
0.12438158 -0.100054085 -0.1272555 -0.111147426 0.023287803 -0.069646075 0.05870396 0.12087643
0.18636827 0.076825365 -0.24725617 -0.026099483 -0.052546274 -0.06275773 0.058648232 0.023165626
-0.17961614 0.12588172 -0.030246492 -0.023249593 0.057790324 -0.25137267 0.08974304 0.048855864
-0.025331136 0.017284209 0.028728869 -0.015738001 -0.06508769 -0.082271166 0.1559323 -0.10934886
-0.13917544 -0.08571731 -0.2510173 -0.005634443 0.04476156 -0.26741827 -0.23208284 -0.39148703
-0.089191265 0.062183384 -0.41052765 -0.05882516 0.01636874 -0.21305877 0.038510706 -0.032914426
-0.07016516 -0.0742241 -0.19253625 0.048870023 -0.08890385 0.17455712 0.070368625 0.07411123
-0.058566764 0.05994794 0.12335286 -0.23499312 0.1446482 -0.09540918 -0.14614505 0.10529185
-0.0751279 -0.17349094 -0.11208056 0.034452513 -0.0063430592 -0.17699149 0.07851157 0.076555364
0.3375407 -0.017799767 -0.21861817 0.035546638 0.05136631 -0.05693616 0.05482889 -0.073983446
-0.19727895 -0.009125264 0.014446213 0.0018433996 -0.13312109 -0.024090046 -0.07407769 0.13665627
0.06441931 0.046171267 -0.002475739 -0.049820423 -0.0007090207 0.021906387 0.22954386 -0.04855115
-0.070183955 0.0012479711 -0.20100641 -3.151712e-05 0.22124165 -0.31290257 -0.40019402 -0.3649117
-0.13470381 -0.024832174 -0.5323463 -0.09428223 -0.16856429 -0.25915542 -0.022312677 0.10428605
-0.0746182 -0.07907495 -0.15717784 -0.05384726 0.09711398 0.135213 0.0625991 -0.017186433
0.016872032 -0.021271365 0.23851885 -0.2596914 -0.018086148 0.16299288 0.04924657 0.12157531
0.03092598 -0.21743053 0.033443168 0.026677167 -0.036387082 -0.079276115 0.100642614 0.056429707
0.059036586 0.072657384 -0.05267385 -0.018122487 -0.20380655 -0.020642372 0.010683818 -0.00801273
-0.098526604 0.09115061 -0.014027292 -0.17917329 -0.03855912 -0.08852446 -0.0075772456 0.1098721
0.07609193 0.018890947 0.10746179 -0.028335033 -0.09882677 -0.030129489 0.22943781 0.03550421
-0.024117406 -0.12462523 -0.19388603 -0.058768917 -0.001446219 -0.25073576 -0.25223154 -0.21526356
0.16238913 -0.20413001 -0.3103128 0.006532652 0.04995885 -0.113056794 0.024074659 -0.031199375
0.08055533 0.056909803 0.088898234 0.07931125 0.22914703 0.047920987 0.3063695 0.024609061
0.10012564 -0.008036125 -0.058155827 -0.032130934 -0.071015164 -0.018648969 -0.14688966 -0.042619873
0.093531884 -0.04561584 0.1426579 0.1762317 -0.21957096 0.046952244 -0.015118301 0.0027193853
0.27449125 -0.10938225 -0.22952877 -0.15759476 -0.0139202345 -0.23302667 0.1740395 -0.18731338
-0.0090118265 -0.06642403 -0.2377685 0.47458962 -0.045123164 -0.18453893 -0.09443768 0.090311326
-0.19212706 -0.057711445 0.042322468 -0.04216971 -0.012524493 -0.059967093 0.017584572 -0.049527477
-0.2240518 -0.2891904 -0.054295093 -0.099362634 0.04402451 -0.08947194 0.009318084 0.08038067
-0.13469103 0.14873493 -0.04272655 -0.27868834 -0.08121959 0.05290326 0.07207344 0.046725452
00000000: 63b8 3fbb 9d1c 11be 2ccf 35be 4a48 f03c
00000010: d9f5 b2bd b072 4f3e bf05 db3d 5cb7 1dbc
00000020: 6672 bcbd 2a44 983d a888 383e 61a8 4abe
00000030: b532 a93d 9fc7 e53d 14fe 8bbd 514f 89bd
00000040: c5bb fe3d 28e9 ccbd 444f 02be 43a1 e3bd
00000050: 10c6 be3c 9aa2 8ebd 9073 703d 108e f73d
00000060: 53d7 3e3e 9e56 9d3d b930 7dbe 95ce d5bc
00000070: c33a 57bd 2087 80bd 2139 703d d7c5 bd3c
00000080: 4bed 37be 23e7 003e 7ec7 f7bc ee75 bebc
00000090: 8cb5 6c3d ebb3 80be 33cb b73d 161d 483d
000000a0: 3e83 cfbc 9d97 8d3c ce58 eb3c fbec 80bc
000000b0: b24c 85bd c97d a8bd b8ac 1f3e 4cf2 dfbd
000000c0: 0284 0ebe 8f8c afbd 5785 80be 22a1 b8bb
000000d0: e657 373d 0ceb 88be 20a7 6dbe fd70 c8be
000000e0: e9a9 b6bd 01b4 7e3d ae30 d2be a7f2 70bd
000000f0: bc17 863c 142c 5abe 67bd 1d3d 47d1 06bd
00000100: c0b2 8fbd ce02 98bd 3928 45be ef2b 483d
00000110: 3913 b6bd 1abf 323e 6d1d 903d a1c7 973d
00000120: b4e3 6fbd f98b 753d 6da0 fc3d 09a2 70be
00000130: a81e 143e e365 c3bd 0ca7 15be 41a3 d73d
00000140: a8dc 99bd 9ca7 31be 7e8a e5bd 141e 0d3d
00000150: 70d9 cfbb 423d 35be adca a03d 0fc9 9c3d
00000160: 22d2 ac3e d1d0 91bc 71dd 5fbe 5a99 113d
00000170: 7b65 523d e435 69bd 4294 603d a284 97bd
00000180: 7e03 4abe 2282 15bc cfaf 6c3c 3a9e f13a
00000190: e550 08be 7d58 c5bc 0bb6 97bd 9fef 0b3e
000001a0: 45ee 833d 151e 3d3d 0240 22bb 8010 4cbd
000001b0: 93dd 39ba 0675 b33c 8c0d 6b3e 92dd 46bd
000001c0: 9bbc 8fbd f692 a33a a0d4 4dbe 4031 04b8
000001d0: 2c8d 623e c434 a0be 3be6 ccbe b5d5 babe
000001e0: ccef 09be d86c cbbc d947 08bf 0b17 c1bd
000001f0: 1e9c 2cbe 05b0 84be 13c9 b6bc ed93 d53d
00000200: 6dd1 98bd 0cf2 a1bd 3af3 20be f28e 5cbd
00000210: b2e3 c63d 4775 0a3e f533 803d 90ca 8cbc
00000220: 3737 8a3c 4941 aebc 493e 743e 45f6 84be
00000230: 6729 94bc 9be7 263e c5b6 493d 7afc f83d
00000240: 7b58 fd3c 1ca6 5ebe b4fb 083d 138a da3c
00000250: 9f0a 15bd 845b a2bd b71d ce3d d622 673d
00000260: 59d0 713d 65cd 943d 89c0 57bd 9c75 94bc
00000270: aab2 50be 311a a9bc 2e0b 2f3c d347 03bc
00000280: 51c8 c9bd 2cad ba3d bad2 65bc 3479 37be
00000290: 2bf0 1dbd 504c b5bd 8b4a f8bb a004 e13d
000002a0: 16d6 9b3d 30c1 9a3c ed14 dc3d df1e e8bc
000002b0: b165 cabd 1ed2 f6bc bff1 6a3e dd6c 113d
000002c0: de91 c5bc 833b ffbd 0f8a 46be adb7 70bd
000002d0: 0f8f bdba 7060 80be 7e24 81be 0d6e 5cbe
000002e0: 5649 263e 7507 51be 52e1 9ebe db0f d63b
000002f0: a7a1 4c3d 528a e7bd 3838 c53c d595 ffbc
00000300: 31fa a43d 411a 693d 4710 b63d f06d a23d
00000310: 85a5 6a3e cc48 443d 77dc 9c3e f198 c93c
00000320: ac0e cd3d f4a9 03bc ce34 6ebd ba9b 03bd
00000330: 6670 91bd b9c5 98bc 3e6a 16be 2d92 2ebd
00000340: a58d bf3d add7 3abd ea14 123e 1576 343e
00000350: 36d7 60be ff50 403d c0b2 77bc b737 323b
00000360: 1e8a 8c3e cd03 e0bd 9709 6bbe 8560 21be
00000370: b211 64bc 8b9e 6ebe 6937 323e 14cf 3fbe
00000380: 57a6 13bc 5209 88bd 9679 73be 69fd f23e
00000390: 11d3 38bd c6f7 3cbe 8b68 c1bd 25f5 b83d
000003a0: f5bc 44be d662 6cbd 535a 2d3d 25ba 2cbd
000003b0: 8833 4dbc 0ea0 75bd 850d 903c 53dd 4abd
000003c0: d66d 65be c410 94be 8864 5ebd a37e cbbd
000003d0: 0b53 343d 113d b7bd e1aa 183c 9f9e a43d
000003e0: 72ec 09be f84d 183e 0902 2fbd 3db0 8ebe
000003f0: 7556 a6bd 17b1 583d 3d9b 933d 3063 3f3d

model.TCN.0.shared_block.0.bias f4 [128]
-0.21090527 -0.26147637 0.1123883 -0.2751929 -0.05592011 0.124374785 0.028325664 -0.05889437
-0.0021386761 -0.22262992 0.13936767 -0.19752227 -0.18010424 -0.013741026 -0.0057271537 0.03107785
-0.02182511 -0.0627444 0.28921553 0.22966623 0.015601183 -0.100831784 0.10230525 0.14496693
0.07792197 -0.03791926 -0.06489354 -0.029458232 -0.2765868 0.01402078 0.034863066 0.051674128
0.037719984 -0.055054788 -0.032774765 -0.014506435 -0.16227745 -0.0074834744 -0.090144984 0.06140518
-0.0019220967 0.0929899 0.008589885 -0.16643535 -0.032916065 0.028224025 0.11726246 0.012574157
-0.019773332 -0.04470645 -0.15978773 0.036945764 0.09136474 -0.17629042 0.038322296 0.0033242886
0.024997482 -0.096997514 -0.023075663 0.07524137 -0.047119137 -0.24125326 0.14938472 0.19181186
-0.02228903 0.005560954 -0.009720943 -0.11590811 -0.08228099 0.0126483 -0.054547235 0.027857894
0.10626155 -0.07194779 0.0002923572 -0.12033846 -0.044880975 -0.0063046017 -0.16789976 0.08707083
-0.061534937 0.0393431 0.43954006 -0.21733992 0.050437134 0.2836848 0.07882893 0.053595774
0.02560384 0.054593287 -0.07425611 0.061612647 -0.031768378 0.10909625 0.15340248 0.104462184
0.19769643 0.028754218 0.032636236 -0.062215064 0.2990901 -0.041257113 -0.073302716 0.105759814
-0.015752506 0.1430842 0.12214366 0.13154618 0.44136533 0.06189713 -0.07510072 -0.027491136
0.120400116 -0.06214212 0.045196977 0.07244634 -0.1335997 -0.032221477 0.019348165 -0.043833993
-0.14494793 0.091739155 -0.06946301 0.26453075 0.034158684 0.07205643 -0.05540565 0.104071684
00000000: 8df7 57be 3be0 85be d62b e63d 15e6 8cbe
00000010: 7c0c 65bd 35b8 fe3d 390b e83c 393b 71bd
00000020: 0829 0cbb 19f9 63be 66b6 0e3e 4743 4abe
00000030: 3f6d 38be 0a22 61bc d9aa bbbb fa96 fe3c
00000040: 93ca b2bc 2380 80bd 0f14 943e a02d 6b3e
00000050: 1b9c 7f3c e580 cebd 6a85 d13d 3672 143e
00000060: 8e95 9f3d 3a51 1bbd e8e6 84bd 6452 f1bc
00000070: c99c 8dbe 6ab7 653c 93cc 0e3d 40a8 533d
00000080: 4580 1a3d 2181 61bd d53e 06bd 66ac 6dbc
00000090: 0f2c 26be ef37 f5bb ef9d b8bd ff83 7b3d
000000a0: ddee fbba 7d71 be3d 97bc 0c3c 076e 2abe
000000b0: ffd2 06bd 1236 e73c 4d27 f03d d603 4e3c
000000c0: affb a1bc 1c1e 37bd 659f 23be 7154 173d
000000d0: 701d bb3d 7a85 34be d7f7 1c3d 4fdc 593b
000000e0: 85c7 cc3c a2a6 c6bd 2c09 bdbc 2618 9a3d
000000f0: ffff 40bd 180b 77be 4ff8 183e 546a 443e
00000100: 7c97 b6bc aa38 b63b 9744 1fbc 3b61 edbd
00000110: f082 a8bd d13a 4f3c ec6c 5fbd 3d36 e43c
00000120: a89f d93d 5d59 93bd 8547 9939 0374 f6bd
00000130: 1dd5 37bd d596 cebb eaed 2bbe 3152 b23d
00000140: 0f0c 7cbd 3b26 213d 650b e13e 5b8e 5ebe
00000150: 2b97 4e3d 223f 913e 1071 a13d 3e87 5b3d
00000160: 25bf d13c 369d 5f3d 9613 98bd 8b5d 7c3d
00000170: 8f1f 02bd db6d df3d 8a15 1d3e 45f0 d53d
00000180: ef70 4a3e f78d eb3c 93ad 053d 39d5 7ebd
00000190: 5622 993e 38fd 28bd bc1f 96bd 9a98 d83d
000001a0: 660b 81bc aa84 123e 7526 fa3d 0bb4 063e
000001b0: a3fa e13e d887 7d3d 68ce 99bd 1735 e1bc
000001c0: 5694 f63d bc88 7ebd 7720 393d bf5e 943d
000001d0: 5cce 08be abfa 03bd 0b80 9e3c 468b 33bd
000001e0: 3b6d 14be bde1 bb3d 9f42 8ebd 9370 873e
000001f0: fae9 0b3d 5292 933d 09f1 62bd 8923 d53d

model.TCN.0.shared_block.2.gamma f4 [128]
0.8832604 0.9762422 0.90568393 0.9366618 1.0261319 1.1936259 0.94685835 0.46374816
0.7335974 0.9589794 1.2589486 0.94666386 1.1221482 1.0354528 0.9973918 1.0651627
1.2062207 0.9665295 1.295237 1.0099983 0.9629896 0.898573 1.0238544 1.2325552
0.9201317 0.802402 0.9766648 0.98726726 1.035152 0.550273 1.0584984 0.9984555
1.1788926 0.8420936 0.9701933 0.88470066 0.8591478 0.54946786 0.7707705 0.24084465
0.9867658 0.9134101 0.87707704 1.0267127 0.6306915 1.1187732 0.92007095 1.0224518
0.9000504 0.993247 0.7693599 1.053943 0.9007143 1.0136815 0.79750353 0.91972715
0.78147656 0.88947505 0.80026835 0.7484087 0.914466 0.9300227 0.86431795 0.9690426
0.9571462 0.85002893 1.1884644 0.9570067 0.9374571 1.1220473 0.92657083 1.1051216
1.021473 0.9266648 0.90703803 0.9868458 0.87306625 1.0784394 0.811905 0.8745601
0.9839135 1.0576324 1.390681 1.0202763 0.97908163 1.1247897 0.76271904 1.0611178
0.97351927 1.2145239 0.94127446 1.0207455 1.0935525 1.0078197 1.0125151 1.0111121
0.95872015 0.1429854 1.0148922 0.80957615 1.2190021 1.112082 0.8800024 0.9791481
0.6569925 1.1607541 0.9908092 0.81131583 1.4692098 0.8462064 0.37570068 0.08095171
1.3664042 1.1135867 0.88908035 1.015164 0.9747611 0.6316126 0.8285697 0.7879863
0.80958515 0.92467815 1.3425629 1.0100746 0.8535575 0.00352829 1.0585266 0.9065546
00000000: 5b1d 623f 02eb 793f e7da 673f 11c9 6f3f
00000010: 4a58 833f bcc8 983f 4f65 723f 6670 ed3e
00000020: 0acd 3b3f ad7f 753f 3a25 a13f 9058 723f
00000030: 8da2 8f3f b889 843f 1255 7f3f 4057 883f
00000040: 7165 9a3f 7a6e 773f 53ca a53f a047 813f
00000050: 7d86 763f e108 663f a90d 833f 5ec4 9d3f
00000060: c08d 6b3f 386a 4d3f b406 7a3f 8cbd 7c3f
00000070: dc7f 843f b1de 0c3f e07c 873f c89a 7f3f
00000080: f4e5 963f 7293 573f 975e 783f be7b 623f
00000090: 1cf1 5b3f eda9 0c3f 3751 453f fb9f 763e
000000a0: af9c 7c3f 3fd5 693f 1f88 603f 526b 833f
000000b0: 0075 213f f633 8f3f c589 6b3f b3df 823f
000000c0: b469 663f 6f45 7e3f c5f4 443f 9be7 863f
000000d0: 3695 663f 51c0 813f 3129 4c3f 3d73 6b3f
000000e0: d90e 483f a3b4 633f 63de 4c3f b697 3f3f
000000f0: 721a 6a3f f815 6e3f f143 5d3f 2d13 783f
00000100: 8907 753f 7f9b 593f 9a1f 983f 64fe 743f
00000110: 30fd 6f3f 3f9f 8f3f bf33 6d3f a074 8d3f
00000120: a1bf 823f e839 6d3f a533 683f eda1 7c3f
00000130: 4581 5f3f 4d0a 8a3f 02d9 4f3f 2ce3 5f3f
00000140: c1e1 7b3f 8060 873f d601 b23f 6a98 823f
00000150: 18a5 7a3f 1cf9 8f3f 8e41 433f b5d2 873f
00000160: 8f38 793f 8575 9b3f 5df7 703f caa7 823f
00000170: 87f9 8b3f 3c00 813f 189a 813f 1f6c 813f
00000180: af6e 753f c46a 123e fde7 813f 6240 4f3f
00000190: 4308 9c3f b458 8e3f d647 613f 73a9 7a3f
000001a0: a930 283f 9793 943f aca5 7d3f 65b2 4f3f
000001b0: 110f bc3f fca0 583f d75b c03e 03ca a53d
000001c0: 55e6 ae3f 028a 8e3f c59a 633f e5f0 813f
000001d0: f289 793f 5db1 213f 251d 543f 78b9 493f
000001e0: f940 4f3f b5b7 6c3f 1ad9 ab3f 204a 813f
000001f0: bf82 5a3f e23a 673b cd7d 873f f613 683f

model.TCN.0.shared_block.2.beta f4 [128]
0.16741368 0.22036682 0.06722968 -0.015566374 -0.10055771 -0.118538134 0.084250234 -0.09367794
-0.020159101 -0.08704956 -0.26882026 -0.10840466 0.059685912 -0.034899153 0.0052666077 -0.1265428
-0.06750875 0.067691885 -0.17022926 -0.029044613 0.039694127 0.0872201 -0.027834607 -0.12118419
-0.08655667 0.13598873 0.0510186 -0.011779396 0.14362694 0.03465896 -0.009054714 0.10309878
0.01183953 0.026458114 -0.10440643 -0.15003674 -0.16611424 -0.004498805 -0.21834949 0.08279485
-0.0048636985 -0.06686193 -0.12199739 -0.12969747 0.091101415 -0.033503804 0.060136437 -0.030860217
0.66515344 0.0045204354 0.035669517 0.03994925 0.24631755 -0.15898375 0.21559007 0.018032523
-0.24668692 -0.006466597 0.17999648 0.14812376 0.25715688 0.23021597 0.09088158 0.028807105
-0.062140793 -0.045297533 -0.101043545 -0.07641618 -0.014547465 -0.23075196 0.07300448 -0.07486843
-0.019355167 0.018463703 -0.15545212 -0.116333425 0.30495587 -0.058807164 0.17786324 -0.16122349
-0.03198234 -0.022990825 -0.03926686 0.014679473 0.044644978 -0.0373401 -0.3167898 -0.06505741
0.10265717 0.071373224 0.013016584 -0.08131701 0.14303257 0.09812412 0.036541004 -0.016643625
0.11641476 0.04102524 -0.02523517 -0.100854285 0.031880133 -0.123900615 0.1379153 0.052943386
0.12568134 0.0051521035 0.096506596 -0.03381458 -0.0858729 0.014194919 0.08582858 0.016746653
-0.12284373 -0.08439851 0.14696588 0.15239361 -0.07229041 -0.04423293 0.28283945 0.020005772
0.05429337 -0.00399662 -0.3777212 0.058133982 0.10857434 0.0037573962 0.06756627 0.16935574
00000000: 7e6e 2b3e d7a7 613e b7af 893d 1b0a 7fbc
00000010: 33f1 cdbd 1fc4 f2bd 638b ac3d 38da bfbd
00000020: b324 a5bc 0a47 b2bd cfa2 89be 4303 debd
00000030: 3779 743d 6af2 0ebd 8293 ac3b 7094 01be
00000040: 0742 8abd 0ba2 8a3d 9450 2ebe f8ee edbc
00000050: 4f96 223d 74a0 b23d 6705 e4bc 6b2f f8bd
00000060: a044 b1bd a140 0b3e e1f8 503d 5efe 40bc
00000070: f112 133e 8ef6 0d3d 395a 14bc 7425 d33d
00000080: 97fa 413c b0be d83c 0ad3 d5bd 3ba3 19be
00000090: da19 2abe b66a 93bb 0297 5fbe 5990 a93d
000000a0: a95f 9fbb e8ee 88bd c5d9 f9bd 6acf 04be
000000b0: 6193 ba3d 493b 09bd a051 763d 91ce fcbc
000000c0: 7f47 2a3f 2920 943b 331a 123d d3a1 233d
000000d0: ab3a 7c3e a3cc 22be a5c3 5c3e f1b8 933c
000000e0: 7f9b 7cbe bfe5 d3bb ff50 383e c1ad 173e
000000f0: 11aa 833e bcbd 6b3e 1f20 ba3d e1fc eb3c
00000100: 5887 7ebd e889 39bd ebef cebd 1680 9cbd
00000110: 7e58 6ebc 3e4a 6cbe 5f83 953d 9f54 99bd
00000120: ba8e 9ebc 3141 973c d72e 1fbe 3840 eebd
00000130: 2d23 9c3e c8df 70bd c821 363e c517 25be
00000140: eaff 02bd 4157 bcbc 49d6 20bd 2c82 703c
00000150: a7dd 363d eff1 18bd 4632 a2be d23c 85bd
00000160: ec3d d23d 202c 923d 8343 553c 8889 a6bd
00000170: 2177 123e 4cf5 c83d 05ac 153d 3658 88bc
00000180: dd6a ee3d 150a 283d fdb9 cebc b18c cebd
00000190: be94 023d 9bbf fdbd ab39 0d3e 2adb 583d
000001a0: 9cb2 003e fad2 a83b 40a5 c53d 2881 0abd
000001b0: 22de afbd ce91 683c e5c6 af3d 4730 893c
000001c0: 7e95 fbbd 20d9 acbd 397e 163e 120d 1c3e
000001d0: ff0c 94bd 972d 35bd 55d0 903e 25e3 a33c
000001e0: ba62 5e3d 14f6 82bb ac64 c1be e61d 6e3d
000001f0: 395c de3d a63e 763b 2f60 8a3d 976b 2d3e

model.TCN.0.shared_block.3.weight f4 [128, 1, 3]
0.24591897 -0.15487672 0.20532256 -0.09726349 0.35481304 0.16088854 0.0016436216 0.13126884
-0.5066319 0.48881665 0.35744676 0.2723593 0.5718989 0.492256 0.188253 -0.06580446
-0.36505857 0.47401255 0.60579 0.00050530385 -0.28657594 0.3640017 -0.098540455 -0.25830442
-0.01918635 -0.24912158 -0.3241229 0.5245925 0.4350519 -0.103298776 0.5069704 -0.559889
-0.0004840546 0.25841305 -0.34152207 -0.5567008 0.31843823 -0.53981084 0.115527205 0.5189969
0.1548787 0.11193623 0.39173535 0.41880944 0.05245911 0.25608745 0.4342902 -0.36069658
0.5327829 -0.47926286 -0.08878529 -0.40688682 -0.37573123 -0.503586 -0.5959051 0.5301703
-0.02682934 0.42054433 0.25986582 0.08462536 0.51970196 -0.07565345 -0.0821066 0.0574359
-0.31371626 -0.38450116 0.30496672 0.5355244 0.19145146 -0.45166305 -0.15021096 0.67564166
-0.55282766 0.1362464 -0.27237982 -0.36202887 0.17216752 0.21237333 0.39818698 0.51032734
-0.027566778 0.3290982 0.48901504 -0.20414363 0.39301923 0.26040044 -0.5002095 -0.29068968
-0.10314865 0.16258533 -0.521835 -0.0810326 -0.43962115 0.50768495 0.45611477 0.15912993
-0.0027526123 -0.44881526 0.7296672 -0.07429477 -0.09219293 0.4231234 0.02354946 0.47895664
0.51427746 0.12485893 -0.4778699 0.07295859 0.630702 -0.48847014 -0.372221 -0.36806345
0.14995147 0.010998075 -0.043200538 -0.16293381 -0.10145284 0.23396505 0.06492499 -0.28584966
-0.5601536 -0.34700397 0.16332972 -0.21806632 -0.2869608 -0.41546208 0.0689351 -0.5128046
-0.13613114 0.457091 0.31859028 0.032026198 -0.2713341 -0.2694109 0.44559115 0.56025285
0.5866687 -0.031916045 0.06484995 0.16714805 0.27150327 0.56668293 0.2368081 -0.11394178
0.44053355 -0.03919904 -0.34413633 0.38775438 0.42317793 -0.027101887 -0.12089227 0.18898395
-0.19027367 0.2243582 0.21446268 0.08376787 -0.063984066 0.5273326 0.33182436 -0.14246273
0.66454214 0.5168783 0.21234219 -0.24592277 0.23288165 0.28200144 0.19103238 0.264771
-0.20335057 0.14697203 -0.1567591 -0.19975607 -0.46114066 0.34081557 -0.48898163 0.4517459
0.21148387 -0.019611029 -0.36016223 0.34296045 0.33546054 0.15666471 -0.18977383 -0.19558345
0.5518897 -0.085347384 0.2990533 0.06566773 -0.15831685 -0.4687545 -0.24918276 -0.36607417
-0.54599524 -0.20671225 0.13004686 -0.4344347 -0.097377755 -0.27683058 0.47538504 0.06039323
-0.6158302 -0.4530695 -0.18253705 0.039720528 -0.52297854 -0.25522766 0.053437352 0.6223028
-0.50907886 -0.14414126 -0.38668635 -0.047097698 0.04564164 0.23624553 0.21326058 0.46101123
0.43002316 0.09157788 0.536728 -0.49531916 0.058032714 -0.1292394 0.15384993 0.09538602
-0.5226167 0.5013454 0.2374594 -0.0045722374 0.40168968 -0.27732 0.10269103 0.41712955
0.36499602 -0.28855684 -0.15548623 0.37500432 0.0781602 0.07664204 -0.44013104 -0.09111298
-0.24243373 -0.27774698 0.12647437 0.4692263 0.39220035 -0.5553465 -0.4990496 0.46325728
-0.07161673 0.04711421 0.5206221 0.32875603 0.2851996 0.518534 0.13729337 0.279105
00000000: 2fd2 7b3e 0198 1ebe 1440 523e 1532 c7bd
00000010: 0eaa b53e f7bf 243e ca6e d73a 576b 063e
00000020: a1b2 01bf 2d46 fa3e 4303 b73e ae72 8b3e
00000030: f767 123f fa08 fc3e 65c5 403e 7dc4 86bd
00000040: f5e8 babe c6b1 f23e 0e15 1b3f 5e76 043a
00000050: 15ba 92be 6e5e ba3e 94cf c9bd 7a40 84be
00000060: b12c 9dbc ba19 7fbe 70f3 a5be b24b 063f
00000070: 1fbf de3e 4f8e d3bd d0c8 013f e354 0fbf
00000080: b5c8 fdb9 b74e 843e fbdb aebe f283 0ebf
00000090: 560a a33e 0b31 0abf 8799 ec3d fbdc 043f
000000a0: 8698 1e3e d23e e53d 8991 c83e 316e d63e
000000b0: 5ddf 563d e51d 833e 495b de3e 39ad b8be
000000c0: 7664 083f f161 f5be 10d5 b5bd 7853 d0be
000000d0: d85f c0be 03eb 00bf 3d8d 18bf 3eb9 073f
000000e0: 34c9 dbbc 9651 d73e 220d 853e 1050 ad3d
000000f0: 300b 053f 32f0 9abd 8127 a8bd e841 6b3d
00000100: 6b9f a0be 56dd c4be 9924 9c3e 2118 093f
00000110: da0b 443e 6140 e7be e7d0 19be daf6 2c3f
00000120: 1d86 0dbf 2d84 0b3e 5e75 8bbe d95b b9be
00000130: af4c 303e 6578 593e 2adf cb3e d0a4 023f
00000140: b9d3 e1bc 8f7f a83e 2e60 fa3e 070b 51be
00000150: d139 c93e 3553 853e bb0d 00bf 47d5 94be
00000160: 993f d3bd c57c 263e fb96 05bf 6bf4 a5bd
00000170: 0616 e1be a4f7 013f e087 e93e f5f2 223e
00000180: 2c65 34bb 1dcb e5be 78cb 3a3f db27 98bd
00000190: a6cf bcbd a1a3 d83e ccea c03c ce39 f53e
000001a0: b0a7 033f 0ab6 ff3d 5dab f4be 506b 953d
000001b0: b075 213f c218 fabe c093 bebe d072 bcbe
000001c0: e18c 193e 4531 343c 0cf3 30bd 1fd8 26be
000001d0: 82c6 cfbd 8994 6f3e 65f7 843d e35a 92be
000001e0: 3a66 0fbf 81aa b1be e83f 273e c74c 5fbe
000001f0: 87ec 92be 72b7 d4be d92d 8d3d 2a47 03bf
00000200: f665 0bbe d507 ea3e 441e a33e e72d 033d
00000210: 4eec 8abe 3af0 89be 8624 e43e bb6c 0f3f
00000220: ec2f 163f 66ba 02bd 0dd0 843d dc28 2b3e
00000230: 7a02 8b3e 2212 113f d37d 723e 4f5a e9bd
00000240: 9d8d e13e 2c8f 20bd a332 b0be be87 c63e
00000250: c7aa d83e c704 debc 5e96 f7bd 0285 413e
00000260: 1ad7 42be 28be 653e 1b9c 5b3e 7d8e ab3d
00000270: 140a 83bd 45ff 063f e2e4 a93e c0e1 11be
00000280: 6f1f 2a3f 2352 043f 3b70 593e 2ed3 7bbe
00000290: 8778 6e3e 7e62 903e fe9d 433e 1190 873e
000002a0: 223b 50be d67f 163e 7585 20be db8c 4cbe
000002b0: a11a ecbe 617f ae3e cd5b fabe 3d4b e73e
000002c0: 3a8f 583e 4fa7 a0bc 2f67 b8be 8398 af3e
000002d0: 7cc1 ab3e b76c 203e 1254 42be 0747 48be
000002e0: a548 0d3f 9cca aebd 841d 993e ce7c 863d
000002f0: d01d 22be 9700 f0be c429 7fbe 136e bbbe
00000300: 58c6 0bbf 60ac 53be 012b 053e 3a6e debe
00000310: fd6d c7bd bdbc 8dbe ab65 f33e e45e 773d
00000320: 0ca7 1dbf baf8 e7be feea 3abe feb1 223d
00000330: ece1 05bf 33ad 82be 20e1 5a3d 3c4f 1f3f
00000340: fe52 02bf c499 13be c1fb c5be 84e9 40bd
00000350: baf2 3a3d 59ea 713e fb60 5a3e aa09 ec3e
00000360: ff2b dc3e 2f8d bb3d 0267 093f 799a fdbe
00000370: b6b3 6d3d 5557 04be d68a 1d3e bf59 c33d
00000380: 35ca 05bf 2c58 003f 8f28 733e b5d2 95bb
00000390: 45aa cd3e e3fc 8dbe ad4f d23d 0192 d53e
000003a0: c2e0 ba3e b9bd 93be c837 1fbe 9100 c03e
000003b0: 7412 a03d 80f6 9c3d db58 e1be 7199 babd
000003c0: 8c40 78be da34 8ebe 7f82 013e 6e3e f03e
000003d0: 7cce c83e 302b 0ebf 6e83 ffbe 0f30 ed3e
000003e0: cbab 92bd d4fa 403d 7d47 053f b652 a83e
000003f0: af05 923e a5be 043f a296 0c3e dae6 8e3e

model.TCN.0.shared_block.3.bias f4 [128]
0.4744295 0.7271499 -0.2038425 -0.073742636 0.3251202 -0.17675853 0.46946093 -0.35085222
-0.43550915 -0.016879922 0.04952674 0.11620194 -0.0012886713 0.1331714 -0.34710178 -0.16722944
-0.026207903 -0.49689463 0.0061173853 0.13014205 0.45891207 -0.12762296 0.4666045 -0.25034696
0.25640333 0.15368117 -0.18103561 -0.1421012 0.3883573 -0.469112 -0.48002258 0.4699327
-0.35294032 0.34831324 -0.003321652 0.4649893 0.28512412 -0.28415897 0.63296044 -0.18856356
0.114145815 0.10160751 0.63479906 0.14443636 -0.40796685 -0.31612724 -0.14494602 0.2736772
0.21142627 -0.45868143 0.18838966 -0.04642126 -0.22574316 0.29486918 0.2966111 -0.09241922
0.43994492 0.00781911 0.31985828 0.225569 0.4652856 0.52399194 0.3185585 0.07307103
0.123979725 0.5462302 0.044014465 0.24026051 -0.12406849 -0.15021427 -0.14206481 0.33920833
-0.16833661 0.15430555 0.3683957 -0.14753862 0.41147926 0.04667211 0.39689168 0.57549626
0.28692544 0.004387213 0.10540193 0.08796176 -0.030642325 0.08433502 -0.22093265 -0.20293437
0.4265191 -0.12877247 -0.1783642 -0.118378565 -0.31719947 -0.30373928 -0.46084604 -0.13591209
0.12534894 -0.27244547 0.20060895 0.5543846 0.020600792 0.21696924 0.3973194 8.853538e-06
0.23698457 0.005933627 -0.52359325 0.4328258 0.0093421 0.3573125 -0.20295925 -0.28551158
0.18547079 0.465594 0.31617254 -0.34567973 0.45379812 -0.12163235 0.21094997 0.14112715
0.1064969 0.16704193 0.1779139 -0.0069941287 -0.04308499 -0.16508967 -0.3784507 0.49663854
00000000: 6ce8 f23e 7f26 3a3f 17bc 50be 6106 97bd
00000010: 2876 a63e 3000 35be 2f5d f03e e7a2 b3be
00000020: 0efb debe c347 8abc 8ddc 4a3d 48fb ed3d
00000030: a2e8 a8ba 155e 083e 53b7 b1be 323e 2bbe
00000040: f5b1 d6bc f968 febe 5974 c83b f543 053e
00000050: 86f6 ea3e 98af 02be c9e6 ee3e 7a2d 80be
00000060: 4c47 833e 995e 1d3e 6661 39be fa82 11be
00000070: c5d6 c63e 732f f0be 85c5 f5be 059b f03e
00000080: 98b4 b4be 1d56 b23e 13b0 59bb 1413 ee3e
00000090: cafb 913e 497d 91be b209 223f ce16 41be
000000a0: 48c5 e93d 9917 d03d 3182 223f 20e7 133e
000000b0: 08e1 d0be 6edb a1be bb6c 14be 6b1f 8c3e
000000c0: 2180 583e 4bd8 eabe 38e9 403e 3824 3ebd
000000d0: 3729 67be 18f9 963e 69dd 973e 4a46 bdbd
000000e0: 7640 e13e b91b 003c 77c4 a33e 8ffb 663e
000000f0: ea39 ee3e 5624 063f 1a1a a33e 44a6 953d
00000100: 15e9 fd3d bed5 0b3f 8348 343d da06 763e
00000110: 9f17 febd c5d1 19be 7079 11be b7ac ad3e
00000120: 6f60 2cbe 4602 1e3e 5c9e bc3e 5d14 17be
00000130: 69ad d23e 412b 3f3d 6335 cb3e b953 133f
00000140: e4e7 923e 9cc2 8f3b f8dc d73d 4c25 b43d
00000150: 9d05 fbbc d7b7 ac3d 2b3c 62be 07ce 4fbe
00000160: b660 da3e eedc 03be 1ba5 36be 7670 f2bd
00000170: f867 a2be b783 9bbe 03f4 ebbe 8a2c 0bbe
00000180: 795b 003e f97d 8bbe 6f6c 4d3e 26ec 0d3f
00000190: fec2 a83c 2f2d 5e3e 736d cb3e a889 1437
000001a0: 15ac 723e df6e c23b 350a 06bf 589b dd3e
000001b0: 9b0f 193c aaf1 b63e 8dd4 4fbe 932e 92be
000001c0: 0eec 3d3e 5662 ee3e 5ee1 a13e effc b0be
000001d0: 3a58 e83e 621a f9bd 4503 583e a383 103e
000001e0: 0c1b da3d 0a0d 2b3e 102f 363e 012f e5bb
000001f0: e379 30bd 440d 29be 4ac4 c1be 6847 fe3e

model.TCN.0.shared_block.5.gamma f4 [128]
0.87750685 1.2817559 0.53051704 0.8601909 0.5785837 0.84603935 0.7354586 0.560654
0.50652736 0.9138942 1.2127455 0.82443327 1.1993772 0.81901646 0.93754745 0.91893333
0.8372457 0.8468224 1.1482421 0.8129431 0.7130609 0.5152488 0.6153183 1.1282548
0.70673823 0.7031467 0.9000155 0.8334542 0.99342585 0.6237037 0.85555744 0.92278475
0.99155027 0.5647397 0.8918437 0.8613822 0.79330105 0.5673028 1.0002367 0.5219953
0.8711746 0.70416266 0.8719224 0.9306318 0.7049818 0.92281765 0.717576 0.72523624
1.1156588 0.9080434 0.68964785 0.81310374 0.7573592 0.8769734 0.86958075 0.84633374
1.0114485 0.56791776 0.928016 0.6468863 1.000407 1.1432619 0.7900897 0.96406513
0.7498094 0.72343403 1.0815012 0.84401953 0.7870433 0.75676477 0.53523445 0.7777242
0.8661873 0.9324881 0.74862987 0.76377064 1.1152009 0.8251358 0.8520912 0.83922154
0.9465414 0.8126285 1.2805685 0.92244995 0.66715974 0.8971031 0.7824633 1.0143156
0.74523866 0.8523922 0.6828261 0.8172296 1.42327 0.7727968 0.77686816 0.66913384
0.875086 0.5453769 0.8122856 0.8595664 1.2220993 0.88015354 0.97135353 0.8026675
0.6083907 0.8730623 1.1227851 0.6387728 1.1875 0.7179853 0.5998477 0.546714
0.9760526 0.8581591 0.9435312 0.73041487 0.68779105 0.4911193 0.6986839 0.75736916
0.72535145 0.7872132 1.1119598 1.0369477 0.65811723 0.5374753 0.8191575 0.99922246
00000000: 4aa4 603f 9410 a43f f7cf 073f 7935 5c3f
00000010: 101e 143f 0996 583f 0447 3c3f 0587 0f3f
00000020: c7ab 013f f8f4 693f 3f3b 9b3f 0f0e 533f
00000030: 3185 993f 10ab 513f 1c03 703f 373f 6b3f
00000040: bc55 563f 5ac9 583f 99f9 923f 0a1d 503f
00000050: 298b 363f 58e7 033f 8085 1d3f a76a 903f
00000060: ccec 343f 6c01 343f 6a67 663f 415d 553f
00000070: 2851 7e3f 0cab 1f3f d005 5b3f 9f3b 6c3f
00000080: 3dd6 7d3f c892 103f de4f 643f 8b83 5c3f
00000090: c715 4b3f c23a 113f c207 803f 7ca1 053f
000000a0: 4c05 5f3f 0144 343f 4e36 5f3f e33d 6e3f
000000b0: b079 343f c73d 6c3f 10b3 373f 15a9 393f
000000c0: e8cd 8e3f 8875 683f c38c 303f 9127 503f
000000d0: 4be2 413f 5481 603f d89c 5e3f 54a9 583f
000000e0: 2577 813f 0f63 113f 7592 6d3f 579a 253f
000000f0: 560d 803f 6856 923f 5243 4a3f f9cc 763f
00000100: 82f3 3f3f f932 393f a26e 8a3f aa11 583f
00000110: ab7b 493f 56bb 413f 2005 093f ef18 473f
00000120: 73be 5d3f 8ab7 6e3f 35a6 3f3f 7986 433f
00000130: e7be 8e3f 1a3c 533f a622 5a3f 39d7 563f
00000140: 8a50 723f 6c08 503f abe9 a33f ae25 6c3f
00000150: fbca 2a3f 8ca8 653f 844f 483f 18d5 813f
00000160: f6c7 3e3f 6036 5a3f b1cd 2e3f f635 513f
00000170: b62d b63f 03d6 453f d5e0 463f 5b4c 2b3f
00000180: a305 603f d29d 0b3f f3f1 4f3f 8b0c 5c3f
00000190: c06d 9c3f be51 613f a0aa 783f 9e7b 4d3f
000001a0: 7ebf 1b3f 0381 5f3f 6cb7 8f3f 9d86 233f
000001b0: 0000 983f e2cd 373f 9e8f 193f 73f5 0b3f
000001c0: 95de 793f 51b0 5b3f 438b 713f 78fc 3a3f
000001d0: 1313 303f fd73 fb3e f3dc 323f f2e2 413f
000001e0: a2b0 393f ce86 493f b354 8e3f b4ba 843f
000001f0: 5f7a 283f fb97 093f 4eb4 513f 0bcd 7f3f

model.TCN.0.shared_block.5.beta f4 [128]
0.0068631913 0.06933191 0.17963463 0.0022841725 -0.31297004 0.29879037 -0.11107771 0.17709419
0.32514623 -0.030387023 0.043582052 0.05088585 -0.06337977 0.045309346 -0.01102871 0.17888129
0.17702653 0.031109896 0.06481141 -0.054256342 -0.0068575065 0.17408521 0.14298429 0.13451347
0.17384242 0.13853206 0.05029473 0.07883783 -0.016555348 0.13478222 0.030567281 0.014238839
0.00040338052 0.12250586 0.007873512 0.12536058 0.15066707 0.26534274 -0.044707444 0.30220753
0.045080267 0.008527028 0.15664455 -0.06136543 0.16539438 0.013713408 0.073065184 0.09197174
-0.019936148 -0.051671773 -0.0032973804 0.14797136 0.052043352 -0.058383085 0.00043099924 0.015386192
-0.023761002 0.0947937 -0.07630996 -0.0951687 0.025069535 -0.004898864 -0.046791766 -0.058931153
0.16911931 -0.005691023 0.078323714 0.043073636 -0.047070514 0.207776 0.12870193 0.016766747
-0.01015744 -0.094572805 0.14045647 -0.24560952 -0.00048317004 0.073947944 0.119534194 0.116445206
-0.052292496 0.16558266 0.012161301 -0.024231115 0.015761212 0.044324588 -0.08132769 0.031556346
-0.08077517 0.20839241 0.14815141 0.016614934 -0.24765362 0.060719386 0.036342956 -0.122731976
-0.05694047 0.2490806 0.06515199 -0.09082291 0.039123684 0.068646684 0.058312215 0.12598312
-0.13923572 0.057571262 -0.08269746 -0.011175604 0.031824123 -0.1401596 0.28459483 0.23545437
0.061217573 -0.0023685552 0.10164325 -0.0074193957 0.13701719 0.40437815 0.1711625 -0.052201163
0.014208872 0.0745078 0.13109832 -0.061914884 0.043051038 0.33551124 0.022391124 -0.027860073
00000000: 9fe4 e03b e3fd 8d3d 24f2 373e 0eb2 153b
00000010: 9c3d a0be 0dfb 983e b67c e3bd 2e58 353e
00000020: 9179 a63e 35ee f8bc 1883 323d ae6d 503d
00000030: 41cd 81bd 4b96 393d c3b1 34bc a82c 373e
00000040: 7146 353e 2eda fe3c d8bb 843d e63b 5ebd
00000050: efb4 e0bb 6543 323e 796a 123e e6bd 093e
00000060: bf03 323e 59db 0d3e d901 4e3d ba75 a13d
00000070: 159f 87bc 5a04 0a3e 3c68 fa3c 054a 693c
00000080: d17c d339 5ae4 fa3d e7ff 003c 865e 003e
00000090: 7848 1a3e 01db 873e 271f 37bd f2ba 9a3e
000000a0: 16a6 383d f3b4 0b3c 6e67 203e 515a 7bbd
000000b0: 255d 293e 34ae 603c 33a3 953d ae5b bc3d
000000c0: 2251 a3bc c8a5 53bd dd18 58bb ce85 173e
000000d0: 692b 553d 1a23 6fbd bdf7 e139 5e16 7c3c
000000e0: 6fa6 c2bc 3323 c23d 6548 9cbd cfe7 c2bd
000000f0: a05e cd3c a686 a0bb b9a8 3fbd cb61 71bd
00000100: 9d2d 2d3e c37b babb 2f68 a03d fb6d 303d
00000110: 03cd 40bd 3bc3 543e 70ca 033e 6b5a 893c
00000120: 646b 26bc 63af c1bd d2d3 0f3e 1081 7bbe
00000130: fc51 fdb9 0572 973d 58ce f43d d37a ee3d
00000140: a830 56bd 808e 293e 3240 473c 5580 c6bc
00000150: a81d 813c b38d 353d 228f a6bd 3a41 013d
00000160: 746d a5bd d264 553e 01b5 173e 0b1c 883c
00000170: e998 7dbe e4b4 783d 5adc 143d e75a fbbd
00000180: 693a 69bd fc0e 7f3e 686e 853d 5d01 babd
00000190: 2840 203d a296 8c3d cad8 6e3d b801 013e
000001a0: cf93 0ebe d8cf 6b3d 495d a9bd e119 37bc
000001b0: 035a 023d 0086 0fbe 6ab6 913e f31a 713e
000001c0: 47bf 7a3d c339 1bbb 562a d03d 671e f3bb
000001d0: 3c4e 0c3e a70a cf3e 3945 2f3e e3d0 55bd
000001e0: 54cc 683c 8c97 983d a33e 063e 769a 7dbd
000001f0: 4956 303d 21c8 ab3e 976d b73c cf3a e4bc
